Forecasting/Forecast_data_2019/forecast_1/models/DeepAR/T1/W0/lightning_logs/version_0/checkpoints/epoch=21-step=1100.ckpt (torch, 281390 bytes, 33 tensors)

model.param_proj.proj.0.weight f4 [1, 40]
0	0x3e2b9f39	0.16759957
1	0x3e1d1fd6	0.15344176
2	0xbe297b4c	-0.1655094
3	0xbc51ae34	-0.012797881
4	0xbd3fb775	-0.046805818
5	0xbce0aaab	-0.02742513
6	0xbde9cf9e	-0.11416553
7	0xbd218b51	-0.039439503
8	0xbcc60e12	-0.024176631
9	0xbdb58de7	-0.08864956
10	0x3d801dc7	0.062556796
11	0xbd8bbac7	-0.06822734
12	0xbc42d2eb	-0.011891107
13	0xbc4d21a3	-0.012520227
14	0x3e433389	0.19062628
15	0x3cd4c493	0.02597264
16	0xbe3a4481	-0.18190195
17	0x3d4c59f6	0.04989048
18	0xbe5159a0	-0.20444345
19	0x3c6080fd	0.013702628
20	0x3daef646	0.08543067
21	0xbe3692e7	-0.17829476
22	0x3e41a2b8	0.18909729
23	0xbdfc5132	-0.12320174
24	0x3e93a72f	0.28838488
25	0x3e98397b	0.29731354
26	0xbd93e466	-0.07221298
27	0x3e8ae1eb	0.27125487
28	0xbd652820	-0.05594647
29	0xbe1fd7db	-0.15609686
30	0x3cc259d3	0.023724472
31	0x3e1c098e	0.1523802
32	0xbe509aa3	-0.20371489
33	0x3b2b76f3	0.0026163429
34	0x3ce39689	0.027781742
35	0x3d4389a1	0.047738675
36	0x3daf7e19	0.08568973
37	0xbd82723d	-0.063694455
38	0x3e8a0d9f	0.26963517
39	0x3dca0c4b	0.09865626

model.param_proj.proj.1.weight f4 [1, 40]
0	0x3e2523be	0.16126916
1	0xbe335b06	-0.17515191
2	0xbdae6324	-0.08515003
3	0x3e14b6ad	0.1452281
4	0xbd878998	-0.06618041
5	0x3e2bd0f7	0.16778933
6	0xbe3edd75	-0.18639167
7	0xbb33e8e9	-0.0027452058
8	0xbcfccded	-0.030859912
9	0x3ddd4020	0.108032465
10	0xbcbef8ba	-0.023311961
11	0xbe310fd5	-0.17291196
12	0x3d3c9f71	0.046050493
13	0x3e362627	0.17787991
14	0x3e1212e3	0.14265017
15	0x3d793ba8	0.06084791
16	0x3de97b96	0.11400525
17	0xbcc10185	-0.023560295
18	0xbe256531	-0.16151883
19	0xbe28bf9c	-0.16479343
20	0x3d6f58c4	0.058434263
21	0x3e12fcb6	0.14354214
22	0xbe0887cd	-0.13333054
23	0x3da09967	0.07841759
24	0xbda0b2fb	-0.07846638
25	0xbc4b91f7	-0.012424937
26	0x3e050984	0.12991911
27	0x3d23a0cc	0.03994827
28	0x3cfb7a11	0.030697854
29	0xbd05cf10	-0.032668173
30	0x3d9c312e	0.07626568
31	0x3e2b4357	0.16724907
32	0x3e41570e	0.18880865
33	0x3cb8acd1	0.022543343
34	0xbe0d3b71	-0.13792206
35	0x3dcfbfab	0.1014398
36	0xbe226c01	-0.15861513
37	0x3df2ea12	0.118610516
38	0xbd0674c0	-0.032826185
39	0x3e503084	0.20331007

model.param_proj.proj.2.weight f4 [1, 40]
0	0x3d075822	0.033043034
1	0xbd888ddc	-0.066676825
2	0x3d157e15	0.036497194
3	0xbe4843f4	-0.19557172
4	0x3e0bbee1	0.13647033
5	0xbd8e9e11	-0.069637425
6	0x3d18cef4	0.03730674
7	0x3e1a0a5e	0.15043017
8	0x3e2a867c	0.16652864
9	0xbdbd59cf	-0.09245645
10	0x3e09f8a7	0.1347376
11	0xbd75f37b	-0.060046654
12	0xbd6e7f42	-0.05822683
13	0x3d31f2f6	0.043444596
14	0x3d8488aa	0.06471379
15	0x3d472803	0.048622143
16	0x3d1e277e	0.03861188
17	0x3e2792e1	0.16364624
18	0xbcaf320e	-0.021386173
19	0xbd5c3892	-0.053764887
20	0xbe066ef8	-0.13128269
21	0x3d8322cd	0.06403122
22	0xbe337723	-0.17525916
23	0x3dd05872	0.101731196
24	0xbe17aa8a	-0.14811149
25	0x3d2e4518	0.04254636
26	0xbdc8fc77	-0.09813779
27	0xbe3d2176	-0.18469796
28	0xbcffb0b6	-0.031212192
29	0x3d59eef0	0.053206384
30	0xbdbb12f0	-0.091344714
31	0xbd77f140	-0.06053281
32	0x3e1ab228	0.15107024
33	0xbe146a1a	-0.144936
34	0xbdcae8ad	-0.09907661
35	0xbe1bc703	-0.15212636
36	0x3d34bdb6	0.044126235
37	0xbdec69e0	-0.115436316
38	0xbe108708	-0.1411401
39	0x3d991014	0.0747377

model.rnn.weight_ih_l0 f4 [160, 11]
0	0xbe055d39	-0.13023843
1	0x3e458ebd	0.19292732
2	0x3ec14580	0.37748337
3	0x3d561818	0.05226907
4	0x3cb5ea66	0.022206496
5	0xbd87d362	-0.06632115
6	0xbef6c745	-0.48198906
7	0xbe0e4234	-0.13892442
8	0xbd430c6e	-0.047619276
9	0xbd5ac1ec	-0.053407595
10	0x3e38f95c	0.18063873
11	0x3cdd9bb5	0.027051786
12	0xbdbd2753	-0.09236016
13	0x3e476c2a	0.19474855
14	0x3ca7b77a	0.02047323
15	0xbe1250cb	-0.14288633
16	0x3ebfe919	0.37482527
17	0xbeb62f45	-0.3558294
18	0xbd136ac4	-0.03599049
19	0x3c98ac4c	0.018636845
20	0x3e1225a9	0.14272179
21	0xbcb5b424	-0.022180624
22	0xbd04ebec	-0.032451555
23	0xbca68c4a	-0.020330567
24	0xbe6e1bae	-0.23252746
25	0xbe64cb3e	-0.22343156
26	0x3e95618a	0.2917598
27	0x3eb156d2	0.3463655
28	0xbe2c60a2	-0.16833737
29	0x3d0a86fb	0.033820134
30	0xbcd7e879	-0.026355969
31	0x3e61d15c	0.2205252
32	0x3d2288e7	0.03968134
33	0x3d4d1c4e	0.05007582
34	0xbcf49ef9	-0.02986096
35	0xbc1a9a27	-0.009436167
36	0x3b9840f8	0.0046464168
37	0x3e824c06	0.25448626
38	0x3ebbcd7e	0.36680216
39	0xbead60ca	-0.33862907
40	0xbd971070	-0.07376182
41	0xbc8fcc34	-0.017553426
42	0x3dd68046	0.10473685
43	0x3d423856	0.047417007
44	0x3dac8a4d	0.08424816
45	0x3e3f02ce	0.18653414
46	0x3e1b6ea3	0.15178923
47	0xbcd47ee3	-0.02593941
48	0xbd8e07f9	-0.069351144
49	0x3e9f2bb7	0.3108804
50	0xbeb08e6d	-0.34483662
51	0xbe2fa65c	-0.17153305
52	0x3d2cee39	0.042219374
53	0x3dfbcb76	0.122946665
54	0x3ce0d75c	0.027446441
55	0x3dfb7fd3	0.1228024
56	0x3e182ef8	0.14861667
57	0xbebb78df	-0.36615655
58	0xbe1eb889	-0.15500082
59	0x3cd46638	0.025927648
60	0x3e8df3ee	0.27725166
61	0xbda9d0c7	-0.08291774
62	0xbdfa9dc2	-0.12237121
63	0x3d478be8	0.04871741
64	0xbd8ab394	-0.06772533
65	0xbe8787a0	-0.2647066
66	0xba85c954	-0.0010207095
67	0x3dcae98a	0.09907825
68	0x3e3b5406	0.18293771
69	0x3e47f19a	0.19525757
70	0x3e36cc3c	0.17851347
71	0x3e41f8a7	0.1894251
72	0xbf03d0d9	-0.5149055
73	0x39243d56	0.00015663108
74	0xbcb24425	-0.02176101
75	0x3d42b773	0.047538232
76	0x3e2ebc23	0.17063956
77	0xbd52ad85	-0.051435012
78	0x3cebda38	0.028790578
79	0x3e52d6e4	0.20589787
80	0x3b508083	0.003181488
81	0xbd46dec9	-0.04855231
82	0x3ce57da1	0.028014006
83	0x3e263e78	0.16234767
84	0xbe14b169	-0.14520802
85	0xbc45959e	-0.012059597
86	0x3df4cc5e	0.119530424
87	0x3cfe07f7	0.031009657
88	0x3e7eb781	0.24874689
89	0x3dd94c21	0.106102236
90	0xbd76d93c	-0.060265765
91	0x3e27b594	0.1637786
92	0xbd122052	-0.035675354
93	0xbeafa87c	-0.3430823
94	0x3ebda1fe	0.37037653
95	0x3d71969d	0.058981527
96	0x3d56d51d	0.052449334
97	0x3d8e3881	0.06944371
98	0x3e9224ed	0.28543797
99	0xbdc99bd9	-0.09844179
100	0x3e3c1876	0.18368706
101	0x3ca26ce4	0.019827314
102	0xbdd97d61	-0.10619617
103	0xbdfeaa5f	-0.124348395
104	0x3dbb252c	0.09137949
105	0x3ecb508e	0.39709896
106	0xbdf406cd	-0.1191536
107	0x3d1c6ddd	0.03819071
108	0x3e1170db	0.14203207
109	0x3db963b7	0.09052222
110	0x3ebbc089	0.3667033
111	0x3e4b9c6b	0.19883887
112	0x3decc18e	0.11560355
113	0x3e213741	0.15743734
114	0x3bb6e8af	0.0055819373
115	0x3e226931	0.1586044
116	0x3d747ebf	0.059691187
117	0xbd997a46	-0.07494025
118	0x3c661efd	0.014045474
119	0xbd101afa	-0.035181977
120	0x3d83ad23	0.064295076
121	0xbd153d3b	-0.036435347
122	0x3e62fe39	0.22167291
123	0x3e838d22	0.25693613
124	0x3d722827	0.059120324
125	0x3de5346d	0.1119164
126	0x3c8b94ab	0.017038664
127	0xbeab1054	-0.33410895
128	0xbe44bec1	-0.19213392
129	0xbd18132e	-0.037127666
130	0xbdee2589	-0.11628253
131	0x3e314bac	0.17314023
132	0x3e1d1bfa	0.15342703
133	0x3d71fee1	0.059080962
134	0x3df81df6	0.121150896
135	0x3d1d686f	0.038429674
136	0xbdde53a8	-0.108558
137	0x3c99c9ac	0.018772922
138	0xbf27ebba	-0.65594065
139	0x3d28598b	0.04110102
140	0xbd6eddd3	-0.058317017
141	0x3ddce230	0.10785329
142	0x3c1b3ad5	0.009474476
143	0xbca23ed8	-0.019805357
144	0x3e3fd28d	0.18732662
145	0x3d0daccc	0.03458862
146	0x3ddce754	0.1078631
147	0x3e2b13dd	0.16706796
148	0xbe350dbb	-0.17681019
149	0x3e9293e2	0.2862845
150	0xbe1f93c2	-0.15583709
151	0x3c4c9522	0.012486728
152	0xbe2032b0	-0.15644336
153	0xbdd38936	-0.10328905
154	0xbe2fe6fb	-0.17177956
155	0xbe77ecc0	-0.24211407
156	0x3e10f57c	0.14156145
157	0x3d841460	0.06449199
158	0xbe820cde	-0.25400442
159	0xbe8eb57e	-0.27872843
160	0xbded1769	-0.11576731
161	0xbe46a36d	-0.1939828
162	0xbc9cc20c	-0.019135498
163	0x3e4d69e0	0.2005992
164	0x3bba810e	0.005691654
165	0xbe1232cc	-0.1427719
166	0xbc25db3d	-0.010123071
167	0xbc81f0c5	-0.015861878
168	0x3d19f773	0.0375895
169	0x3e0369c3	0.12833314
170	0x3e3c34f4	0.18379575
171	0xbed4f9b9	-0.41596773
172	0xbe33d999	-0.17563476
173	0x3d340d9b	0.043958288
174	0xbd09f962	-0.033685096
175	0x3d0600e8	0.032715708
176	0x3de44fe5	0.11148051
177	0xbdd0b3e4	-0.101905614
178	0x3b890eea	0.004182686
179	0x3d8e28b5	0.06941358
180	0xbc03e9a1	-0.008051307
181	0x3de71123	0.112825654
182	0xbe2518e3	-0.16122775
183	0xbdc0f50e	-0.094217405
184	0xbc5ca956	-0.013468107
185	0xbe07af13	-0.1325038
186	0x3e187b1c	0.14890712
187	0x3df0f22a	0.11764939
188	0xbac06d61	-0.0014681035
189	0xbc842457	-0.01613061
190	0xbe3977f0	-0.18112159
191	0x3e756888	0.23965657
192	0x3e70e900	0.23526382
193	0xbf002ed4	-0.50071454
194	0x3dd99ba5	0.1062539
195	0xbd074bee	-0.033031397
196	0x3e0b9b2f	0.13633417
197	0x3a2d2ff9	0.0006606575
198	0xbe23f1ee	-0.16010258
199	0xbd9ba442	-0.07599689
200	0x3db450d1	0.08804477
201	0x3e4c4cb1	0.1995113
202	0x3e7d46e1	0.2473407
203	0x3d832675	0.064038195
204	0xbe0f2161	-0.13977577
205	0xbd5a9e6b	-0.053373735
206	0xbd2dd82e	-0.042442493
207	0xbd896dd6	-0.06710403
208	0x3ba1d18e	0.004938311
209	0xbe6621c0	-0.22473812
210	0xbe5452f8	-0.20734775
211	0x3e22a5a7	0.15883504
212	0x3da4766d	0.080304004
213	0xbe2cad2d	-0.16862936
214	0xbcfe88a8	-0.031071022
215	0xbddcc970	-0.10780609
216	0xbe004dc8	-0.12529671
217	0xbd068619	-0.03284273
218	0x3e54c3db	0.20777838
219	0x3df04a9b	0.1173298
220	0xbde971c6	-0.11398654
221	0x3e114c12	0.14189175
222	0x3d959ab5	0.07304899
223	0x3d8f9471	0.07010735
224	0x3e105f1b	0.1409878
225	0x3e952c1b	0.29135212
226	0xbe17f32c	-0.14838856
227	0xbd1da4c2	-0.038487203
228	0xbc714a81	-0.014727236
229	0x3df8c4e5	0.1214693
230	0x3c51d0ec	0.0128061585
231	0xbe0c9e80	-0.13732338
232	0xbcf414b5	-0.02979503
233	0x3d2ae782	0.04172469
234	0xbde239ae	-0.11046158
235	0xbd629d86	-0.055326007
236	0x3e4f1cbf	0.2022581
237	0xbec55939	-0.38544634
238	0x3ae33900	0.0017335713
239	0xbd5aaf97	-0.05339011
240	0x3db8210b	0.089906774
241	0xbe34ed62	-0.1766868
242	0xbdb93db3	-0.09044971
243	0x3c3c9c72	0.011511909
244	0x3e98c594	0.2983824
245	0x3e74246a	0.23842016
246	0x3e7b024a	0.24512592
247	0xbcbf41ed	-0.023346866
248	0xbe4e07bd	-0.2012014
249	0xbd989c14	-0.074516445
250	0xbd62f9c2	-0.05541397
251	0xbc24e360	-0.010063976
252	0x3e2859c2	0.1644049
253	0x3e2e4c02	0.17021182
254	0xbe70806d	-0.2348649
255	0xbe3f32c0	-0.18671703

model.rnn.weight_hh_l0 f4 [160, 40]
0	0x3e0d51bd	0.13800712
1	0xbdde8634	-0.10865441
2	0x3d79b78f	0.06096607
3	0xbe082e3e	-0.1329889
4	0x3da46cb8	0.08028549
5	0x3dc24195	0.09485165
6	0x3d3e1c9e	0.04641401
7	0x3e45c908	0.19314969
8	0xbdfc6042	-0.12323047
9	0x3dd1993b	0.102343045
10	0xbd6252f6	-0.0552549
11	0xbe34b83a	-0.17648402
12	0x3d439118	0.047745794
13	0xbd4ce083	-0.0500188
14	0x3d8c1bcb	0.068412386
15	0xbe301364	-0.17194897
16	0xbe412fa7	-0.18865834
17	0x3def1a81	0.11674977
18	0x3dd6b639	0.10483975
19	0xbdf67f6b	-0.12036022
20	0x3dbbf171	0.09176911
21	0x3da43272	0.08017434
22	0x3dad9c4d	0.08477078
23	0x3be0478d	0.006844467
24	0x3d8a1d32	0.0674385
25	0x3daa5621	0.08317209
26	0xbc525241	-0.012836994
27	0x3dc72997	0.097247295
28	0x3e0ca778	0.1373576
29	0x3da23e01	0.079219826
30	0xbe102de9	-0.14080013
31	0xbd733f7a	-0.059386708
32	0x3e389aef	0.18027852
33	0x3d88f155	0.066866554
34	0xbdada79f	-0.08479237
35	0xbe140530	-0.14455104
36	0x3d66b1f6	0.05632206
37	0xbc3e4ecd	-0.011615467
38	0xbe05d6b4	-0.13070184
39	0x3d2a95da	0.041646816
40	0xbbcabd23	-0.0061870976
41	0x3a9bb9f5	0.0011880981
42	0x3e338855	0.17532475
43	0x3dc10337	0.09424441
44	0x3d852bbf	0.065024845
45	0x3c59c235	0.0132909315
46	0x3d381150	0.044938385
47	0x3c44fa77	0.012022606
48	0xbde0e646	-0.10981421
49	0x3cce7945	0.02520431
50	0x3e3df940	0.18552113
51	0x3dcca7e9	0.09992964
52	0xbdf70cad	-0.120629646
53	0xbd7ff629	-0.062490616
54	0x3d258032	0.04040546
55	0x3a8aab44	0.0010579606
56	0x3dde20cd	0.108461
57	0xbda5f813	-0.08103957
58	0x3e4dce31	0.20098187
59	0x3ddb986e	0.10722433
60	0x3df2cab1	0.118550666
61	0x3d8ec883	0.06971838
62	0x3e8c0335	0.27346197
63	0x3e05eda7	0.13078938
64	0x3df0a3a2	0.117499605
65	0xbe8caaf0	-0.27474165
66	0x3c288982	0.010286691
67	0x3dfb3cba	0.12267442
68	0x3e133a35	0.14377673
69	0xbd36e676	-0.04465338
70	0x3e8792ca	0.2647918
71	0xbe01ae79	-0.12664212
72	0x3bec85ab	0.007218083
73	0x3b2e2ed7	0.0026578212
74	0xbd2c4eab	-0.04206721
75	0x3da0da3e	0.078541264
76	0xbe6da2ac	-0.23206586
77	0xbe4cf3ee	-0.20014927
78	0xbe82db9c	-0.25558174
79	0x3dabd835	0.083908476
80	0x3e2090a5	0.15680178
81	0x3d91832e	0.07105099
82	0x3defcbd6	0.117088005
83	0x3ccf7a1f	0.025326787
84	0x3cb0485e	0.021518882
85	0xbd9b8b49	-0.07594926
86	0xbd72c64a	-0.059271134
87	0xbdb4e984	-0.08833602
88	0x3c9642c8	0.01834239
89	0xbd4749f5	-0.048654515
90	0x3e6b0141	0.22949697
91	0x3dc0f6a2	0.094220415
92	0xbe222f82	-0.15838435
93	0x3d47be27	0.048765328
94	0xbdd18126	-0.10229711
95	0xbd60eab3	-0.054911327
96	0xbc48dae0	-0.012259215
97	0x3e67d089	0.22638144
98	0x3db6d905	0.08928112
99	0x3e7774db	0.2416567
100	0xbe2c43b1	-0.16822697
101	0x3bdaabd2	0.0066733146
102	0xbe147f8e	-0.14501783
103	0x3ddeee37	0.108852796
104	0x3e2aaf5a	0.16668454
105	0xbdda4dbb	-0.10659357
106	0x3c5b34ec	0.013379317
107	0x3dc089ad	0.094012596
108	0x3de4e6ff	0.111768715
109	0xbe09aaf4	-0.1344412
110	0x3e0f67db	0.14004461
111	0xbe0f88ad	-0.14016981
112	0x3dd00e01	0.10158921
113	0xbb615d37	-0.0034387836
114	0x3e2bac26	0.16764888
115	0x3d923c2a	0.07140382
116	0xbe108b3a	-0.1411561
117	0x3d9522f6	0.07282059
118	0xbc77ca7d	-0.015123961
119	0x3db7101c	0.089386195
120	0xbe173d82	-0.14769557
121	0x3d62b247	0.0553458
122	0x3e052df6	0.13005814
123	0xbdd801a6	-0.105471894
124	0xbdd8b4f0	-0.10581386
125	0xbbf39a48	-0.0074341632
126	0xbd160c40	-0.036632776
127	0xbd165153	-0.03669865
128	0x3c9e64bd	0.019335145
129	0x3e0b19b1	0.13584019
130	0xbe0f6d58	-0.14006555
131	0xbe51fffa	-0.20507804
132	0x3cf8d1ff	0.030373571
133	0x3e1d9f57	0.15392815
134	0xbe39d653	-0.18148164
135	0x3d6f3d6b	0.058408182
136	0x3bf2b921	0.007407323
137	0xbd264aa4	-0.040598527
138	0xbda7b2a1	-0.08188368
139	0xbc89898e	-0.016789224
140	0xbde64e22	-0.112453714
141	0xbd0bcd9d	-0.034131635
142	0xbd383166	-0.044968985
143	0xbe057ee2	-0.13036683
144	0xbe03fd1d	-0.12889524
145	0xbd8ad3c4	-0.06778672
146	0xbb56ec7c	-0.0032794764
147	0x3a7aedae	0.000957216
148	0xbc1844bf	-0.009293734
149	0x3dc25f92	0.09490885
150	0xbd8a060d	-0.06739435
151	0xbe250be7	-0.16117822
152	0x3d936b02	0.071981445
153	0x3c34d0ed	0.01103614
154	0x3e273a89	0.16330923
155	0xbe684a1c	-0.2268452
156	0x3ba8e20a	0.005153899
157	0x3d7ec648	0.062200814
158	0x3e0d2e42	0.13787177
159	0x3d9beb9a	0.07613297
160	0x3e8e362f	0.27775714
161	0x3c950cd1	0.018194588
162	0x3ea45960	0.32099438
163	0x3e93b5ba	0.28849584
164	0x3d57f0fb	0.05272005
165	0x3e8c665e	0.2742185
166	0x3e637679	0.22213162
167	0x3decf48f	0.11570083
168	0xbe247c7c	-0.16063112
169	0xbe462a12	-0.19351986
170	0x3dbd0f3c	0.09231421
171	0xbdbfd56b	-0.09366878
172	0xbd93de5f	-0.07220148
173	0xbd6ddbad	-0.058070827
174	0x3e45c6aa	0.19314066
175	0xbe227203	-0.15863805
176	0x3df66a22	0.12031962
177	0x3e93e241	0.28883556
178	0x3d750ea4	0.059828416
179	0x3e54911c	0.2075848
180	0x3eafbe6f	0.34324977
181	0x3df19c85	0.11797432
182	0x3e54093a	0.20706645
183	0x3e6ce454	0.23133975
184	0x3e7e26cf	0.24819492
185	0x3d65673c	0.056006655
186	0xbe8aed1d	-0.27134028
187	0x3ea548b4	0.3228203
188	0x3e88fcc3	0.26755342
189	0xbe71b078	-0.23602474
190	0x3e20bd73	0.15697269
191	0xbe260c4e	-0.16215631
192	0x3df15492	0.11783709
193	0xbdcbba1f	-0.09947609
194	0x3d046709	0.032324824
195	0xbe8de066	-0.27710265
196	0x3d35f845	0.04442622
197	0xbe925132	-0.28577572
198	0x3d088a2a	0.03333489
199	0x3ebddc36	0.3708207
200	0x3de39b2b	0.1111358
201	0x3d8d4b89	0.06899173
202	0x3b41bc94	0.0029561864
203	0x3ce579e0	0.028012216
204	0x3d95b219	0.0730936
205	0x3d9d5875	0.076828875
206	0x3d2b8053	0.041870426
207	0x3d9acd55	0.07558695
208	0x3d62662a	0.055273212
209	0x3db85ccb	0.09002074
210	0x3d91f59b	0.07126924
211	0x3dfe7f06	0.124265715
212	0xbad020a5	-0.001587887
213	0xbac0539c	-0.0014673355
214	0x3d115dcd	0.035489846
215	0xbda37eea	-0.07983191
216	0xbdc7392d	-0.09727702
217	0xbdad0f5e	-0.08450197
218	0x3de9dc4f	0.11418974
219	0xbdd2f8f9	-0.10301394
220	0x3daf4259	0.08557577
221	0x3e817547	0.25284788
222	0xbd959c20	-0.07305169
223	0xbcba275b	-0.022723844
224	0x3e0e15f2	0.13875559
225	0x3dc125c7	0.094310336
226	0xbe04fa64	-0.12986141
227	0x3e130d38	0.14360511
228	0xbd373119	-0.044724558
229	0xbdec7b33	-0.11546936
230	0x3dcc186f	0.09965598
231	0xbcf27474	-0.029596545
232	0xbddb6080	-0.10711765
233	0xbe67e79b	-0.22646944
234	0xbcf5642e	-0.029954996
235	0xbe0dae7d	-0.13836093
236	0x3de7cf4b	0.11318835
237	0xbdb6b7b2	-0.08921756
238	0x3d9b6c36	0.07588999
239	0x3e7ccee4	0.24688298
240	0xbcaa2a6a	-0.020772178
241	0xbd02b661	-0.03191221
242	0x3d04a08f	0.032379683
243	0xbd897e29	-0.06713516
244	0x3dadd39f	0.08487629
245	0xbdd3a722	-0.103346124
246	0x3d25664a	0.040380754
247	0xbd714ca5	-0.058910985
248	0x3ded2141	0.11578608
249	0xbe2aa104	-0.16662985
250	0x3cd85f73	0.026412701
251	0xbd4cabaf	-0.049968418
252	0x3d8f44da	0.06995554
253	0xbe119aaa	-0.14219156
254	0xbcfadbfd	-0.030622477
255	0x3d4c5677	0.049887147

model.rnn.bias_ih_l0 f4 [160]
0	0x3dfd4ce3	0.123681806
1	0x3e72e4f2	0.23720148
2	0xbdb4ea69	-0.08833773
3	0xbc78dc79	-0.0151892835
4	0x3e310a1b	0.17289011
5	0x3d991a66	0.07475738
6	0x3e330e29	0.1748587
7	0x3e0d0801	0.13772584
8	0x3df0b841	0.11753894
9	0x3d7de63e	0.061987154
10	0x3e03067d	0.12795444
11	0x3de72e79	0.11288161
12	0x3e25129b	0.16120379
13	0xbc4a3025	-0.01234058
14	0x3e3447f1	0.17605568
15	0x3e4f9571	0.20271851
16	0xbd9220a0	-0.07135129
17	0x3e13187e	0.14364812
18	0xbdc76943	-0.09736874
19	0xbd81b3d4	-0.063331276
20	0xbda9e8e0	-0.082963705
21	0xbde28691	-0.11060823
22	0x3e0a9643	0.13533883
23	0xbdb95262	-0.090489164
24	0x3db11b0b	0.08647736
25	0x3c1e4570	0.00966011
26	0x3d40d413	0.04707725
27	0x3cccc4ae	0.024996128
28	0x3e00b7db	0.12570135
29	0x3e62c89d	0.2214684
30	0xbc699b00	-0.014258146
31	0xbd22a9f4	-0.03971286
32	0x3d87eab6	0.066365644
33	0x3d94ad85	0.07259659
34	0xbc740dc1	-0.014895857
35	0x3e153854	0.14572269
36	0x3e618cb7	0.22026335
37	0x3e87f3f7	0.26553318
38	0x3eaf4e1b	0.34239277
39	0xbc7251d6	-0.014790019
40	0x3df4b89e	0.119492754
41	0x3d49bf2a	0.049254574
42	0x3d8d5cd1	0.06902469
43	0xbd9f8fc4	-0.07791093
44	0x3e09686c	0.1341874
45	0x3e0a2bf6	0.13493332
46	0xbc428022	-0.01187137
47	0x3cf86959	0.030323671
48	0xbe0b61b4	-0.1361149
49	0xbd9a4989	-0.07533557
50	0xbbfb340f	-0.007666118
51	0x3e3857ff	0.18002318
52	0x3e294dd7	0.165336
53	0xbc6f87da	-0.014619792
54	0x3c36bc54	0.011153299
55	0xbd93d1c8	-0.07217747
56	0x3e106f85	0.14105041
57	0xbdcd3ce8	-0.100213826
58	0x3dab75d0	0.0837208
59	0xba858868	-0.0010187747
60	0xbdd2e9ab	-0.10298475
61	0x3c6dced1	0.014514641
62	0xbde6eeb3	-0.11275997
63	0xbca2c728	-0.019870356
64	0x3c4d86c0	0.012544334
65	0xbd30142f	-0.042988
66	0xbc4e4f66	-0.012592172
67	0x3e939afe	0.28829187
68	0xbd42aded	-0.04752915
69	0xbc44d861	-0.012014479
70	0xbc2b5783	-0.010457876
71	0x3e417f19	0.1889614
72	0x3df9aca6	0.12191133
73	0x3db24fc4	0.0870662
74	0xbd4f9a9c	-0.050684556
75	0xbe2317cb	-0.15927045
76	0xbdcf7c6e	-0.10131155
77	0xbe011294	-0.12604743
78	0xbde220d2	-0.11041416
79	0xbd9c0f5e	-0.076201186
80	0x3e19583a	0.14975062
81	0xbc6bb69e	-0.014386801
82	0x3e5ef466	0.21772918
83	0x3d82dc8c	0.06389722
84	0x3de385c5	0.11109499
85	0xbe01b26b	-0.12665717
86	0xbdde3b3b	-0.10851141
87	0x3e2a70f4	0.1664465
88	0x3ce5f635	0.028071502
89	0xbe3b9522	-0.18318608
90	0xbdb2b6db	-0.08726283
91	0xbe0cf892	-0.13766697
92	0xbd4c52fb	-0.049883824
93	0x3d407751	0.04698879
94	0x3dc20ff6	0.094757006
95	0xbe25aa4e	-0.16178247
96	0x3da3fa17	0.08006685
97	0x3d26b143	0.040696394
98	0x3e408afd	0.1880302
99	0xbd78abec	-0.060710832
100	0x3df99b5b	0.12187835
101	0xbd437593	-0.04771955
102	0x3e25b5f0	0.16182685
103	0x3dba65b4	0.091014296
104	0x3dbd594b	0.09245547
105	0x3cb06149	0.021530764
106	0xbcff54f4	-0.031168438
107	0x3e8c964b	0.27458414
108	0xbd51decf	-0.051237877
109	0xbe31ae4a	-0.17351642
110	0xbe039634	-0.12850267
111	0x3da6017f	0.08105754
112	0x3e19385d	0.14962907
113	0xbe0f0814	-0.13967925
114	0xbd853201	-0.06503678
115	0xbd80db5c	-0.062918395
116	0xbd314a67	-0.043283846
117	0xbd9d653f	-0.07685327
118	0x3d89ef73	0.067351244
119	0x3de7fb6b	0.11327251
120	0x3e300874	0.17190725
121	0xbd232d45	-0.039838094
122	0xbd8c1b7f	-0.06841182
123	0xbd36c3a1	-0.04462016
124	0x3d157f41	0.036498312
125	0xbd9a2583	-0.07526686
126	0x3e30b949	0.1725818
127	0x3e172f8f	0.14764236
128	0x3de94c05	0.11391453
129	0x3e179eee	0.1480672
130	0xbc5ead06	-0.013591057
131	0x3d9572d4	0.07297292
132	0xbd3f3e75	-0.046690423
133	0x3d8abcdf	0.067743056
134	0x3e6795c6	0.22615728
135	0x3e531e4b	0.20617025
136	0xbd365443	-0.044513952
137	0x3dade5d5	0.084911026
138	0xbded38af	-0.11583077
139	0x3e37f3f3	0.17964153
140	0x3dd0b138	0.10190052
141	0xbd3eab15	-0.046549875
142	0x3d3e4b47	0.04645851
143	0x3cb28679	0.021792637
144	0x3dca8156	0.0988795
145	0x3debf8f4	0.115220934
146	0xbd9726bc	-0.07380435
147	0x3e77512b	0.24152057
148	0xbe00869f	-0.12551354
149	0x3da76697	0.08173864
150	0x3e8334b7	0.25626156
151	0x3e6204eb	0.22072189
152	0xbe11facd	-0.14255829
153	0x3e062e9c	0.13103718
154	0x3e2a3cd2	0.16624764
155	0x3e28e8b7	0.16495024
156	0xbcc4a2b6	-0.024003368
157	0xbc2d5571	-0.010579453
158	0x3e0c9327	0.13728009
159	0x3e89e4a4	0.2693225

model.rnn.bias_hh_l0 f4 [160]
0	0x3d48857b	0.048955422
1	0x3e6e0f4e	0.23248026
2	0x3dac3ede	0.084104285
3	0x3e41d52b	0.18928973
4	0x3eb00ab4	0.34383166
5	0x3e593823	0.2121282
6	0xbcff92bd	-0.0311979
7	0x3d9e6773	0.07734575
8	0x3e1b7008	0.15179455
9	0x3dbf0858	0.09327763
10	0x3c3bace0	0.011454791
11	0x3ddbbedb	0.10729762
12	0x3d7a16ce	0.061056904
13	0xbdcdbe8f	-0.10046112
14	0x3da02c07	0.078208975
15	0xbdbaface	-0.091298684
16	0xbc8b2acd	-0.016988182
17	0xbddfff33	-0.10937347
18	0x3e0b91b3	0.13629799
19	0xbd9b70ab	-0.07589849
20	0x3e632bbc	0.22184652
21	0xbc9998b7	-0.018749578
22	0x3e34f283	0.17670636
23	0xbdb7534e	-0.08951436
24	0x3ba1abdd	0.004933818
25	0x3e32bce4	0.17454869
26	0x3d94e889	0.07270915
27	0x3eabe964	0.335765
28	0xbd8c067e	-0.06837176
29	0xbd890959	-0.06691236
30	0x3dd0d141	0.10196162
31	0x3e416920	0.18887758
32	0x3cc2c783	0.023776775
33	0x3e90f184	0.28309262
34	0x3dffa12f	0.12481915
35	0x3ea3f0ec	0.32019746
36	0xbae72bba	-0.0017636933
37	0x3e8974c9	0.26846913
38	0x3d52fc0c	0.051509902
39	0x3e187fa1	0.14892437
40	0xbd94aa70	-0.07259071
41	0xbd2b091a	-0.041756727
42	0x3e28a6b2	0.16469839
43	0xbdcee2bc	-0.1010184
44	0xbd73e9b7	-0.05954906
45	0x3e0247e4	0.12722737
46	0x3df18c05	0.11794285
47	0xbc8fc887	-0.017551674
48	0x3aaa9c8e	0.0013016628
49	0xbe144023	-0.14477591
50	0xbd5b6f77	-0.053573098
51	0x3e749372	0.23884371
52	0x3e27dc12	0.16392544
53	0x3df1f20f	0.11813747
54	0x3d8396e8	0.064252675
55	0xbdafce64	-0.08584288
56	0xbc944893	-0.018101012
57	0x3e057db6	0.13036236
58	0xbd980880	-0.07423496
59	0x3cd25c8d	0.025678897
60	0x3ccc4e1e	0.024939593
61	0x3df3a81d	0.118972994
62	0x3e1063ea	0.14100614
63	0x3dbb6a0c	0.09151086
64	0xbdbf968d	-0.09354887
65	0xbde4b457	-0.111672096
66	0x3de23aa9	0.11046345
67	0x3e01628f	0.12635253
68	0x3dc31838	0.09526104
69	0xbe2161cc	-0.15759963
70	0x3d722734	0.05911942
71	0xbd881f75	-0.06646625
72	0x3dea397d	0.11436746
73	0xbc99a448	-0.018755093
74	0xbdb4fb0b	-0.08836945
75	0xbd9b7962	-0.07591511
76	0x3d12153e	0.03566479
77	0x3d981703	0.07426264
78	0xbce185a4	-0.027529545
79	0x3e1d90ca	0.15387264
80	0x3e2aa4ae	0.16664383
81	0x3cda9ba9	0.026685553
82	0x3bd52fa6	0.0065059243
83	0x3d7c527e	0.06160211
84	0x3dbc8491	0.092049725
85	0xbdf69d84	-0.120417625
86	0x3e257ffb	0.16162102
87	0x3c82d372	0.015969966
88	0xbd6124d2	-0.054966755
89	0x3d33dbc0	0.04391074
90	0xbe220d21	-0.15825321
91	0x3d48df52	0.0490411
92	0xbe063b78	-0.13108623
93	0xbe437787	-0.19088565
94	0x3e318640	0.17336369
95	0x3dabc777	0.08387654
96	0xbdb2ac6a	-0.087242916
97	0x3d225339	0.03963015
98	0x3e1af9fc	0.15134424
99	0xbdbd7e28	-0.09252578
100	0x3dbb6646	0.091503665
101	0x3d568f1b	0.05238257
102	0xbd9b4ac6	-0.07582621
103	0x3de2c768	0.1107319
104	0x3d21bb82	0.039485462
105	0xbd2c4934	-0.042062
106	0xbe1beca2	-0.15226987
107	0x3dc76a50	0.097370744
108	0x3c7da724	0.015481744
109	0x3d515271	0.051104013
110	0x3d7af939	0.061272833
111	0xbda75e97	-0.081723385
112	0xbca14c48	-0.019689694
113	0xbe3b44c8	-0.18287957
114	0xbd6dbf93	-0.058044028
115	0x3e07918b	0.13239114
116	0x3d79ee34	0.061018184
117	0x3da05d4f	0.07830297
118	0x3dc9f6fc	0.09861562
119	0xbddca210	-0.107730985
120	0x3ddcec6f	0.10787284
121	0x3d8fdacf	0.07024156
122	0x3e1b8702	0.1518822
123	0x3c170015	0.009216328
124	0x3bbd7153	0.0057813316
125	0xba93e4c9	-0.0011283393
126	0xbdb40f9a	-0.08792038
127	0x3dfbd7d2	0.12297024
128	0xbd4b7310	-0.04967028
129	0x3e416f02	0.18890002
130	0x3e15c397	0.14625393
131	0x3e6de088	0.23230183
132	0x3e0a35a7	0.13497029
133	0xbc7cf72e	-0.015439792
134	0x3e9e2633	0.3088852
135	0xbd708c58	-0.058727592
136	0x3db5658a	0.08857258
137	0xbdd33298	-0.10312384
138	0x3b8dbf02	0.0043257484
139	0x3e5a134e	0.21296427
140	0x3db271b5	0.08713094
141	0x3e32dd9c	0.1746735
142	0x3ca34344	0.019929536
143	0xbb9c2b89	-0.004765932
144	0x3e0e28dc	0.13882774
145	0xbdb304be	-0.08741139
146	0xbccd46c0	-0.02505815
147	0x3e848fe8	0.25891042
148	0xbe137c5a	-0.14402905
149	0xbcdfa119	-0.027298497
150	0xbc7eab37	-0.0155437505
151	0xbd18c304	-0.037295356
152	0xbd733184	-0.059373394
153	0xbcd73143	-0.026268607
154	0xbb42ded1	-0.002973486
155	0x3e1c6e77	0.15276514
156	0x3d073848	0.03301266
157	0xbd3fed26	-0.04685702
158	0x3d6edec6	0.058317922
159	0x3d370331	0.044680778

model.rnn.weight_ih_l1 f4 [160, 40]
0	0xbcbc0609	-0.022952097
1	0xbb899b3a	-0.0041994127
2	0x3dc971ff	0.09836196
3	0xbdad0569	-0.084482975
4	0xbd63f522	-0.0556537
5	0xbd393c96	-0.045223795
6	0x3e03dfae	0.12878296
7	0x3da50417	0.08057421
8	0xbdaf0a3b	-0.08546873
9	0xbdc828c5	-0.09773401
10	0x3dff0ff0	0.12454212
11	0xbda2900a	-0.079376295
12	0xbe0d0b6e	-0.13773891
13	0x3ce8b4e0	0.02840656
14	0xbda5d1a8	-0.080966294
15	0xbd8f613d	-0.070009686
16	0x3d0edfb9	0.034881327
17	0xbd182fae	-0.037154846
18	0x3cf3b4d9	0.02974932
19	0x3d49de29	0.049284134
20	0xbe298873	-0.16555957
21	0xbdda80c2	-0.1066909
22	0x3e072636	0.1319817
23	0x3b12ea5f	0.0022417528
24	0xbda80d77	-0.08205693
25	0xbd4b51fd	-0.049638737
26	0xbe5a3efc	-0.21313089
27	0xbe052b20	-0.13004732
28	0x3d2886a8	0.041144043
29	0x3d99756f	0.07493102
30	0x3d00b626	0.03142371
31	0x3be77c33	0.0070643662
32	0x3d9f3725	0.0777419
33	0x3defc4f5	0.117074884
34	0xbe0eeb4d	-0.13956948
35	0x3e558d7b	0.20854752
36	0xbe0d047f	-0.13771246
37	0x3d254db7	0.040357318
38	0xbdb7964d	-0.089642145
39	0xbe106b1a	-0.14103356
40	0xbdab250e	-0.08356677
41	0x3d076eee	0.033064775
42	0xbd7bd0ea	-0.061478533
43	0x3d32eeb8	0.04368469
44	0xbe1afe21	-0.15136005
45	0x3d0ea8cc	0.034828946
46	0xbdb11452	-0.08646454
47	0x3dbdae22	0.09261729
48	0xbd93a85f	-0.072098486
49	0x3e1c4213	0.1525958
50	0xbe16beec	-0.14721268
51	0xbe1baf2a	-0.15203539
52	0xbd606856	-0.054787003
53	0xbdd46af9	-0.10371966
54	0xbe395536	-0.18098912
55	0x3d002ab2	0.031290717
56	0xbd893538	-0.06699604
57	0x3d8a734d	0.06760273
58	0x3d888745	0.066664256
59	0x3d57fbca	0.05273036
60	0x3d44661f	0.047948953
61	0xbda33d1a	-0.079706386
62	0x3d200776	0.039069615
63	0x3ce7943c	0.028268926
64	0xbb887898	-0.0041647665
65	0x3dcde7da	0.10053988
66	0xbe617b1e	-0.22019622
67	0x3a6144ca	0.0008593319
68	0xbd57731d	-0.052600015
69	0xbd282bb3	-0.0410573
70	0x3e19791b	0.14987604
71	0xbb425358	-0.0029651728
72	0x3df0e4e6	0.11762409
73	0x3d60dc49	0.05489758
74	0x3db7d755	0.08976618
75	0x3de0aeba	0.109708264
76	0x3dd0130c	0.10159883
77	0x3c9db15c	0.01924961
78	0x3d7e80ff	0.06213474
79	0x3db65a52	0.08903946
80	0x3dc4efa1	0.09616018
81	0xbd369f36	-0.04458543
82	0xbd82e617	-0.063915424
83	0x3db54f2f	0.08852994
84	0xbe046888	-0.129305
85	0x3e1947b4	0.14968759
86	0x3dc45539	0.095865674
87	0x39ce077f	0.00039296967
88	0xbe4206b2	-0.18947867
89	0xbe0abe55	-0.13549168
90	0x3e1c0df9	0.15239705
91	0xbd7856cb	-0.060629647
92	0xbdc99b40	-0.09844065
93	0xbe089527	-0.13338147
94	0xbd774d38	-0.060376376
95	0x3d502922	0.050820477
96	0x3e39c62f	0.18142007
97	0x3d47d656	0.04878839
98	0x3d86bee4	0.06579378
99	0x3e2cfcf4	0.16893369
100	0x3d8dd539	0.069254346
101	0xbdcec35e	-0.10095857
102	0x3d701a1a	0.058618642
103	0x3e267973	0.16257267
104	0x3dcce279	0.10004134
105	0x3def134a	0.11673601
106	0xbd1b2f5d	-0.037886966
107	0xbcb16937	-0.021656616
108	0x3dbeee6d	0.0932282
109	0xbd04abcf	-0.032390412
110	0x3e048a42	0.12943366
111	0xbd24c419	-0.040226076
112	0x3e25d1fe	0.16193387
113	0xbe0fce96	-0.1404365
114	0xbe02d64e	-0.12777063
115	0x3cfbdf08	0.030745998
116	0x3d6c9898	0.057762712
117	0xbdc39980	-0.09550762
118	0xbd562e23	-0.052290093
119	0xbd87a83c	-0.06623885
120	0x3d7e1263	0.062029254
121	0x3df5581f	0.119796984
122	0x3e5510fe	0.20807263
123	0xbd585312	-0.052813597
124	0x3e807a0c	0.25093114
125	0x3d1770cc	0.036972806
126	0xbc05d79e	-0.008169083
127	0x3e23ef04	0.16009146
128	0xbcc6c06e	-0.02426168
129	0xbe679269	-0.22614445
130	0xbe7b1526	-0.24519786
131	0xbe24fca6	-0.16112003
132	0xbd923f2c	-0.07140955
133	0xbd7d9d3a	-0.06191752
134	0x3c3bd04d	0.011463237
135	0xbe3b65d5	-0.18300565
136	0xbe666679	-0.22500028
137	0x3be8befe	0.007102846
138	0x3d5afc64	0.053463355
139	0x3dda7cfa	0.10668369
140	0x3e6518aa	0.2237269
141	0xbd2be019	-0.041961763
142	0xbd6d19db	-0.057885986
143	0xbce92773	-0.028461194
144	0x3d8e7ef3	0.069578074
145	0xbe27a362	-0.1637092
146	0xbd3ca3b9	-0.046054576
147	0x3d2e7f5c	0.042601928
148	0x3d60e926	0.054909848
149	0xbe3307a6	-0.17483386
150	0x3e2150ac	0.1575343
151	0x3dcfe106	0.10150342
152	0xbcead736	-0.028667074
153	0xbd06920e	-0.032854132
154	0x3e812ec4	0.25230992
155	0xbcfbdee6	-0.030745935
156	0xbe1e1463	-0.15437464
157	0xbd2f0520	-0.042729497
158	0x3dd59d00	0.10430336
159	0x3d304056	0.043030106
160	0x3dfa039f	0.12207722
161	0x3d967530	0.073465705
162	0x3db562d8	0.088567436
163	0x3e2eb0c8	0.17059624
164	0x3e40b3ad	0.18818541
165	0x3d9550e8	0.07290822
166	0x3d263834	0.040580943
167	0x3db18880	0.086686134
168	0xba9c6a9c	-0.0011933628
169	0x3ba04411	0.0048909266
170	0xbdb3dbdd	-0.0878217
171	0xbde8c033	-0.11364784
172	0x3bc53250	0.0060179606
173	0xbe11f2c5	-0.14252765
174	0x3d344924	0.044015065
175	0xbd9570c8	-0.07296902
176	0xbdae5ce3	-0.085138105
177	0x3e31891e	0.17337462
178	0x3e7226df	0.2364764
179	0x3de1c6c0	0.11024237
180	0x3dc4dbbe	0.09612225
181	0xbd82b6fb	-0.06382557
182	0x3e14ee4f	0.14544033
183	0x3e36c202	0.17847446
184	0x3e29a0ee	0.16565296
185	0x3da7b806	0.081893966
186	0xbe3e27fc	-0.1856994
187	0x3b88117d	0.0041524754
188	0x3e7cd77a	0.24691573
189	0xbdd30422	-0.10303523
190	0x3dddf9fb	0.108386956
191	0x3c12e65b	0.008966054
192	0x3c9072b3	0.017632818
193	0xbd74f675	-0.059805352
194	0x3e771ccf	0.24132083
195	0xbc5a8acd	-0.013338757
196	0xbdbbbea6	-0.09167223
197	0xbdc74b5f	-0.09731173
198	0x3db764f9	0.08954806
199	0x3e8a1d24	0.26975358
200	0x3d8c6161	0.06854511
201	0x3dc0844d	0.09400234
202	0xbd24dfd7	-0.040252533
203	0x3d979a46	0.07402472
204	0xbd92b70a	-0.07163818
205	0x3c225f0f	0.009910359
206	0x3e43984b	0.19101064
207	0x3d8272d3	0.06369557
208	0xbd9e4303	-0.07727625
209	0x3d4d63d1	0.05014402
210	0xbd4f424e	-0.050600342
211	0xbdd7af57	-0.1053149
212	0xbe0a2cc4	-0.13493639
213	0x3cf8652e	0.030321684
214	0x3e1fd854	0.15609866
215	0xbdc17ef5	-0.09448043
216	0xbd803bda	-0.06261416
217	0x3d547a16	0.051874243
218	0xbd59c724	-0.05316843
219	0x3d5fca10	0.05463606
220	0x3b505dec	0.0031794263
221	0xbda3c345	-0.07996229
222	0x3d3e3d77	0.046445336
223	0xbd42b09f	-0.04753172
224	0x39db2cc2	0.00041804282
225	0x3d39524d	0.045244504
226	0xbe20d469	-0.15706028
227	0xbc30aeae	-0.010783834
228	0xbe04c91b	-0.1296734
229	0xbd4734ac	-0.048634216
230	0x3dc15395	0.0943977
231	0xbe2c442f	-0.16822885
232	0x3d170ee6	0.036879443
233	0xbc6a989a	-0.01431861
234	0x3cae1f56	0.021255177
235	0x3d05e092	0.03268487
236	0x3ca89ec8	0.020583525
237	0x3c8b7d75	0.017027596
238	0x3c4d92c5	0.0125472
239	0x3d95f66c	0.07322392
240	0x3e3e99f6	0.18613419
241	0x3d3f2502	0.046666153
242	0x3d83c15e	0.06433366
243	0x3e09696e	0.13419124
244	0x3d9493bc	0.072547406
245	0xbe5863bd	-0.21131797
246	0xbd58e2fb	-0.05295084
247	0xbd96299c	-0.07332155
248	0x3d88d08f	0.066804044
249	0xbe4faf2c	-0.20281667
250	0xbc17c30a	-0.0092628095
251	0x3d0455bd	0.03230833
252	0x3da63222	0.08115031
253	0x3de5bf8c	0.11218175
254	0xbd55fdf8	-0.052244157
255	0xbe52316e	-0.20526668

model.rnn.weight_hh_l1 f4 [160, 40]
0	0x3d39ebd1	0.045390908
1	0x3e1d7de4	0.15380055
2	0x3dbe0d1d	0.09279845
3	0x3d0fbdc7	0.035093095
4	0xbd8835ec	-0.0665091
5	0xbe2226a3	-0.15835051
6	0xbdee4f79	-0.11636252
7	0xbd4f62cb	-0.050631326
8	0x3d53a36a	0.051669516
9	0xbe321940	-0.17392445
10	0x3d84ba9f	0.06480908
11	0xbdf3fee7	-0.11913853
12	0x3df6f486	0.12058358
13	0xbe3122a5	-0.17298372
14	0x3d2976b8	0.041372985
15	0xbdadd62e	-0.08488117
16	0xbe224044	-0.15844828
17	0x3c897a49	0.016781943
18	0xbd52dc83	-0.051479828
19	0x3e35c72b	0.17751758
20	0xbe019182	-0.12653163
21	0xbc653c5c	-0.013991442
22	0xbe2068b4	-0.15664941
23	0xbd891645	-0.06693701
24	0xbdf94adb	-0.12172481
25	0xbe00ac9a	-0.12565842
26	0x3c9bd12e	0.019020643
27	0xbdbf0a8c	-0.093281835
28	0xbe14416a	-0.14478078
29	0xbc52758d	-0.012845409
30	0xbc248e39	-0.010043674
31	0xbe06487c	-0.13113588
32	0xbc05c2d7	-0.008164129
33	0x3d87a937	0.06624072
34	0x3e1fd74e	0.15609476
35	0xbe490bbb	-0.19633381
36	0x3d21fbc9	0.03954676
37	0xbe16730f	-0.14692329
38	0x3d2b5e27	0.041837838
39	0xbe0f42e5	-0.13990362
40	0x3de16a34	0.11006585
41	0xbd88bf78	-0.06677145
42	0x3e16fde4	0.14745289
43	0xbc4466a3	-0.011987361
44	0x3c4a7283	0.012356403
45	0x3e200baf	0.15629457
46	0x3d83e714	0.06440559
47	0x3e1094fb	0.14119332
48	0x3e475464	0.19465786
49	0xbabd174a	-0.0014426496
50	0xbdbd61c6	-0.092471644
51	0xbdacde4c	-0.08440837
52	0xbc93abd3	-0.018026268
53	0x3d25db09	0.04049209
54	0xbd2bb922	-0.041924603
55	0xbe34f29a	-0.1767067
56	0xbd0802ee	-0.03320592
57	0xbdcaf85d	-0.09910653
58	0xbd92b5f5	-0.07163612
59	0xbd1a8dd8	-0.03773293
60	0xbe3b800d	-0.18310566
61	0x3dd672fa	0.10471149
62	0xbdfb5105	-0.122713126
63	0xbdee0d16	-0.1162359
64	0x3dab62df	0.083684675
65	0xbc289153	-0.010288554
66	0x3d00a59c	0.031407937
67	0xbe16cf9d	-0.14727636
68	0xbc466589	-0.012109169
69	0xbafbdb0c	-0.0019215061
70	0x3d68da21	0.05684865
71	0xbe170a96	-0.14750132
72	0xbd7744b5	-0.06036826
73	0xbd2f6c7e	-0.042828076
74	0x3d4f33bb	0.050586443
75	0x3b36fc7e	0.0027921493
76	0xbe1b0818	-0.15139806
77	0xbe03fa25	-0.12888391
78	0xbd628091	-0.05529839
79	0x3cda00fd	0.0266118
80	0x3dc89897	0.09794729
81	0x3dfbf48c	0.12302503
82	0xbe010fda	-0.12603703
83	0xbdc95fa8	-0.09832698
84	0xbe28645d	-0.16444536
85	0x3d589ed5	0.05288585
86	0x3dc9b84f	0.09849607
87	0xbd2363c2	-0.03989006
88	0x3d7b21f0	0.061311662
89	0xbb32c6ec	-0.0027279211
90	0xbe169832	-0.14706495
91	0xbdbc0ee3	-0.09182527
92	0x3d82a7a3	0.063796304
93	0xbd77dd2d	-0.060513664
94	0xbdb10acb	-0.08644637
95	0x3e0062df	0.12537716
96	0x3c841c51	0.016126784
97	0xbe253285	-0.16132553
98	0xbdec94f1	-0.11551846
99	0x3dedbedc	0.11608669
100	0xbe31ce04	-0.17363745
101	0xbd9b6969	-0.07588465
102	0xbda4e479	-0.0805139
103	0x3dc61776	0.096724436
104	0xbd9582e8	-0.07300359
105	0xbe1e65fe	-0.15468594
106	0x3db382be	0.087651715
107	0xbe0ea156	-0.13928732
108	0xbdebac9c	-0.11507532
109	0xbe11b8a6	-0.14230594
110	0xbd14a9c2	-0.036294706
111	0xbdaaa017	-0.08331316
112	0xbd7ba351	-0.061435048
113	0xbd6d40f1	-0.05792326
114	0xbe144cc3	-0.14482407
115	0x3e06eb5d	0.13175721
116	0x3da3593d	0.07976005
117	0xbe0dd473	-0.13850574
118	0xbcdd13c3	-0.026986962
119	0xbd9146c8	-0.070935786
120	0x3d8ed994	0.069750935
121	0xbe293b6c	-0.16526574
122	0xbd9ae716	-0.075636074
123	0x3be68c34	0.0070357565
124	0xbe1c30b7	-0.15252958
125	0x3e5e03c4	0.21681124
126	0xbdd81917	-0.105516605
127	0x3d4c674b	0.049903195
128	0xbcc59c72	-0.02412245
129	0x3c8bb506	0.017054092
130	0xbd32165a	-0.043478347
131	0xbcc7b439	-0.024377929
132	0xbd9da76c	-0.07697949
133	0x3dabf372	0.08396043
134	0x3db10151	0.08642829
135	0x3d72c3f5	0.05926891
136	0xbd2ff7fd	-0.04296111
137	0xbe5cd57c	-0.21565813
138	0xbd424f98	-0.047439188
139	0xbdbdd6fa	-0.09269519
140	0xbc9f0985	-0.019413719
141	0xbd9f0654	-0.07764879
142	0xbda1bcf7	-0.0789737
143	0x3d408655	0.04700311
144	0xbc088b85	-0.008334045
145	0xbcdb6bd8	-0.026784822
146	0x3e05ef86	0.13079652
147	0xbd52504b	-0.051346105
148	0x3e0dc043	0.13842873
149	0x3d22aeba	0.039717413
150	0x3c2bab4f	0.010477855
151	0x3d8e741d	0.069557406
152	0x3d258bcb	0.04041652
153	0x3dac65f5	0.08417884
154	0xbdf2c21b	-0.11853429
155	0x3df260f6	0.118349
156	0xbe77a9f6	-0.24185929
157	0x3df0fa61	0.11766506
158	0xbcfc6703	-0.030810839
159	0x3e2fbb56	0.17161307
160	0x3dfa359a	0.12217255
161	0xbe457968	-0.19284594
162	0xbe0f0980	-0.13968468
163	0xbd271a2a	-0.040796436
164	0xbd898feb	-0.06716903
165	0x3c149e6a	0.009070972
166	0xbe1adaa0	-0.15122461
167	0xbe25e943	-0.16202264
168	0xbe296fc9	-0.16546549
169	0x3cea43df	0.028596817
170	0xbe0d645f	-0.1380782
171	0xbe27ec5a	-0.16398755
172	0x3de6189c	0.112351626
173	0x3da5be2a	0.080929115
174	0x3daaea17	0.0834543
175	0x3d628b5e	0.055308692
176	0xbd26a1d7	-0.040681686
177	0xbe37e209	-0.1795732
178	0xbe4426b3	-0.19155388
179	0xbdc5fb56	-0.09667079
180	0x3e69df68	0.22839129
181	0xbd61dcf0	-0.055142343
182	0x3ca882c2	0.020570163
183	0x3dd7d050	0.10537779
184	0x3cfadece	0.03062382
185	0x3db6aa54	0.08919206
186	0x3d224935	0.039620597
187	0x3d4f3c61	0.05059469
188	0x3e0f8ccd	0.14018555
189	0xbd9407fb	-0.07228085
190	0x3d9b73a3	0.07590415
191	0xbc1cb296	-0.009564063
192	0xbc0f03aa	-0.008728901
193	0xbc6c29cb	-0.014414261
194	0xbe158479	-0.14601316
195	0x3e0ef8a5	0.13962038
196	0xbe57d2b8	-0.21076477
197	0x3d676935	0.056496818
198	0x3dd47b14	0.10375038
199	0x3d17e010	0.037078917
200	0xbcf6404f	-0.030059962
201	0xbdba20ca	-0.09088285
202	0xbdf81fff	-0.12115478
203	0x3da7be78	0.08190626
204	0xbe2795c1	-0.1636572
205	0xbd294817	-0.041328516
206	0xbe0eae3e	-0.13933656
207	0xbe29acbf	-0.16569804
208	0xbdcc3e1c	-0.09972784
209	0x3e12e53e	0.14345261
210	0xbe060417	-0.13087498
211	0xbe038a0c	-0.1284563
212	0x3da0eed6	0.07858054
213	0x3ddc2c2f	0.10750615
214	0x3c5fce1b	0.013659979
215	0xbc17407a	-0.009231681
216	0xbdfc71de	-0.12326406
217	0x3bfaccab	0.007653793
218	0xbd78682e	-0.06064623
219	0xbc76e256	-0.015068611
220	0xbdc1d8d5	-0.094651856
221	0x3defdb92	0.117118016
222	0x3d515005	0.051101703
223	0xbd0a49c7	-0.033761766
224	0x3dcbf496	0.099587604
225	0x3d037af6	0.032099687
226	0x3bd24d30	0.006417893
227	0x3ccdeaff	0.025136469
228	0xbdba3ca6	-0.09093599
229	0xbcadd12b	-0.021217903
230	0x3d7f0652	0.062261887
231	0x3dbdb94c	0.09263858
232	0xbcdab9a4	-0.026699848
233	0x3e538ca1	0.20659114
234	0x3c38e47e	0.0112849455
235	0x3c67adfc	0.014140602
236	0xbcd675a8	-0.02617915
237	0xbbe03811	-0.006842621
238	0xbdae233e	-0.08502816
239	0xbdb57ce6	-0.08861713
240	0x3e2c64f3	0.16835384
241	0xbe189491	-0.14900424
242	0xbdc3afdd	-0.09555028
243	0x3e18a10a	0.14905182
244	0xbe3054ee	-0.17219898
245	0x3e2ff2a2	0.17182401
246	0x3d966a87	0.07344537
247	0xbdd3f930	-0.10350263
248	0xbe048d40	-0.12944508
249	0x3d8176f6	0.06321518
250	0xbdb65015	-0.08901993
251	0xbe190532	-0.14943388
252	0x3e0478fe	0.1293678
253	0x3d2653c3	0.040607225
254	0x3e2cd3ec	0.16877717
255	0x3de9249e	0.11383937

model.rnn.bias_ih_l1 f4 [160]
0	0xbcb8a164	-0.022537895
1	0x3dc28186	0.09497361
2	0xbda0bfbf	-0.07849073
3	0x3e5e9360	0.21735907
4	0xbc4c944a	-0.012486527
5	0x3e24df75	0.16100867
6	0x3e52c253	0.20581941
7	0x3e5e6afe	0.21720502
8	0x3d984b75	0.07436267
9	0x3dc2b32c	0.095068306
10	0x3e2bcb58	0.16776788
11	0x3e1ceffa	0.15325919
12	0xbdbbef93	-0.091765545
13	0xbe02ac88	-0.12761128
14	0xbdda6c06	-0.10665135
15	0x3e0d7099	0.13812484
16	0x3db1a2d0	0.08673632
17	0x3d6fe1bb	0.058564883
18	0xbcace7e8	-0.021106675
19	0x3e14713f	0.14496325
20	0x3e61bff0	0.22045875
21	0xbe03b6ab	-0.12862651
22	0x3d3eae3c	0.04655288
23	0x3dad416e	0.08459745
24	0xbd047354	-0.032336548
25	0x3df492ab	0.11942037
26	0x3dadb90f	0.08482563
27	0x3c43e3f3	0.011956203
28	0x3d27266f	0.040808138
29	0x3e1a6a2d	0.15079565
30	0xba83c36a	-0.0010052745
31	0x3e653dfc	0.22386926
32	0x3e05d5c9	0.13069834
33	0x3dd9f493	0.10642352
34	0x3cba8f83	0.02277351
35	0xbd9130c4	-0.070893794
36	0x3e431bff	0.19053648
37	0x3d69e2dc	0.057101116
38	0x3cebc5dd	0.028780872
39	0xbe152e64	-0.14568478
40	0xbd5be308	-0.05368331
41	0xbb2ca893	-0.0026345595
42	0x3db989b1	0.09059466
43	0xbc3b0f14	-0.011417169
44	0xbb6bf264	-0.003600263
45	0x3e04a837	0.12954794
46	0xbc302df4	-0.010753144
47	0x3e50c000	0.20385742
48	0xbd8c0f85	-0.068388976
49	0x3d2e16a6	0.042502068
50	0x3cfb53a7	0.030679537
51	0x3dda1c92	0.106499806
52	0x3e212c41	0.15739538
53	0xbc269970	-0.010168418
54	0x3cd83909	0.026394384
55	0xbde1bc78	-0.11022276
56	0x3d547127	0.051865723
57	0xbdc26140	-0.09491205
58	0x3d81ed13	0.063440464
59	0x3e34dadd	0.17661615
60	0x3e26b0de	0.16278407
61	0xbc2953ad	-0.010334891
62	0x3bc6d9d6	0.0060684485
63	0x3d928f7b	0.07156273
64	0x3db3bfbd	0.087768055
65	0xbc8a3438	-0.016870603
66	0xbdddd895	-0.10832325
67	0x3cc87af5	0.024472693
68	0x3d0fc263	0.03509749
69	0xbc7b79bf	-0.015348851
70	0x3cea8117	0.028626008
71	0xbd3780f5	-0.044800717
72	0x3dbce8cc	0.0922409
73	0x3db128e0	0.086503744
74	0xbd86f2f8	-0.06589311
75	0xbdaf6646	-0.08564429
76	0xbdeb1378	-0.11478323
77	0x3db1731a	0.08664532
78	0x3d3b81e0	0.045778155
79	0x3e21193e	0.15732285
80	0xbd2198a0	-0.039452195
81	0xbd589952	-0.052880593
82	0x3d9472be	0.07248448
83	0x3e2c9569	0.1685387
84	0xbe5ba6aa	-0.21450296
85	0x3d9f505e	0.07779001
86	0xbbd03510	-0.006353982
87	0xbdfab289	-0.12241084
88	0x3c97b248	0.018517628
89	0xbdba0b78	-0.09084219
90	0xbe448900	-0.19192886
91	0xbbe9b7a4	-0.0071324874
92	0xbc3d1a33	-0.011541891
93	0x3e13dfbd	0.14440818
94	0x3d8bf128	0.06833106
95	0x3d8874f8	0.06662935
96	0x3ddee6dd	0.108838774
97	0xbdb8aa51	-0.0901686
98	0xbe1a04da	-0.15040913
99	0xbdcedf35	-0.10101167
100	0x3e1a851f	0.15089844
101	0x3d62f033	0.055404853
102	0xbd49bca3	-0.049252164
103	0xbd83faca	-0.064443186
104	0xbd6d3e4f	-0.05792075
105	0xbdcec441	-0.10096026
106	0x3d726269	0.059175882
107	0x3d8c6346	0.068548724
108	0x3e328d04	0.17436606
109	0xbddce711	-0.1078626
110	0x3e1f6a64	0.15567929
111	0x3d5fce07	0.054639842
112	0x3d81e8dc	0.063432425
113	0x3e18c0c7	0.14917289
114	0xbe03eae7	-0.12882577
115	0x3e03187f	0.12802313
116	0xbce5beba	-0.028045047
117	0x3ddca000	0.10772705
118	0x3b28bf89	0.002574893
119	0x3e1b49b7	0.15164839
120	0x3dc44ddf	0.09585165
121	0x3e00e81e	0.12588546
122	0xbca92113	-0.020645654
123	0x3e35aa06	0.1774064
124	0x3e176314	0.14783889
125	0x3e006230	0.12537456
126	0xbdfab4cc	-0.122415155
127	0xbd7cd432	-0.061725803
128	0x3d987144	0.07443479
129	0xbd6cd23d	-0.057817686
130	0x3d3c9e62	0.046049483
131	0xbc90c6fb	-0.017673006
132	0xbd215a94	-0.039393023
133	0xbd612283	-0.054964554
134	0x3e111673	0.1416872
135	0x3a7788fc	0.00094427145
136	0x3e094c3e	0.1340799
137	0x3e3f8f73	0.18707065
138	0x3dbec775	0.09315387
139	0xbdd804b9	-0.10547776
140	0xba1d911a	-0.00060106965
141	0xbe185962	-0.14877847
142	0x3e02765b	0.12740462
143	0x3d46f208	0.048570663
144	0xbd7eb2ac	-0.062182114
145	0x3e17f694	0.14840156
146	0x3de0e61a	0.109813884
147	0x3da44965	0.080218114
148	0x3c8a64ad	0.01689371
149	0x3dc745a0	0.09730077
150	0xbd8c7a39	-0.068592496
151	0xbc14495c	-0.009050693
152	0x3e2869a2	0.16446546
153	0x3e24e9bb	0.16104786
154	0x3e0a3844	0.13498026
155	0x3db7bc50	0.08971465
156	0x3cff9851	0.03120056
157	0xbd8b9b92	-0.06816782
158	0xbc76ff87	-0.015075571
159	0xbc1ecbe4	-0.009692166

model.rnn.bias_hh_l1 f4 [160]
0	0xbda54815	-0.08070389
1	0x3e000d69	0.12505116
2	0x3db071de	0.086154684
3	0x3e61e354	0.22059375
4	0x3e0d4308	0.13795102
5	0xbd8a2918	-0.06746119
6	0x3e2c4642	0.16823676
7	0x3e793389	0.24336065
8	0x3d54a7da	0.05191789
9	0x3d40feda	0.047118045
10	0x3e275c6c	0.1634385
11	0xbbee4e04	-0.007272484
12	0xbd6c78c7	-0.05773237
13	0x3e394442	0.18092445
14	0x3de7bc75	0.11315242
15	0x3daef026	0.085418984
16	0x3e305e39	0.17223443
17	0x3bb42a95	0.0054982402
18	0xbdb87996	-0.09007566
19	0x3e295826	0.16537532
20	0x3d4edc15	0.050502855
21	0xbc4cb6fb	-0.012494798
22	0x3e060626	0.13088283
23	0x3d75792e	0.05993002
24	0x3d843041	0.06454516
25	0xbda72382	-0.081610695
26	0xbc9daa47	-0.019246234
27	0x3e3e890b	0.18606965
28	0x3cf852e6	0.030312967
29	0x3d034eaf	0.03205746
30	0x3e0d0206	0.13770303
31	0x3dd6e015	0.10491959
32	0x3d9f4316	0.077764675
33	0x3e644520	0.22291994
34	0xbc479e95	-0.012183805
35	0x3dedd60d	0.116130926
36	0x3c220ea4	0.009891186
37	0x3dd60a9f	0.104512446
38	0x3d9e3f54	0.07726923
39	0xbdee484d	-0.11634884
40	0x3d31747c	0.04332398
41	0x3bd3bea9	0.0064619374
42	0xbdbb4357	-0.091437034
43	0xbd5a1987	-0.053247
44	0x3dbebe82	0.0931368
45	0x3e4c6838	0.19961631
46	0x3c8d528b	0.017251274
47	0x3ba1af9a	0.0049342634
48	0xbc4adf17	-0.01238229
49	0x3ca8222e	0.02052411
50	0xbc6819ec	-0.0141663365
51	0x3df8313a	0.12118764
52	0x3da5d675	0.08097545
53	0xbc8980e2	-0.016785089
54	0x3e19a079	0.15002622
55	0x3db8e31a	0.09027691
56	0xbe144c6a	-0.14482275
57	0x3d8cb357	0.06870144
58	0x3d78d700	0.060751915
59	0x3e1b733e	0.1518068
60	0xbd9ff1cb	-0.0780979
61	0x3db7763c	0.08958098
62	0xbdb856b2	-0.09000911
63	0xbd82afd9	-0.063811965
64	0xbd575c67	-0.052578356
65	0xbd6a1a1a	-0.0571538
66	0xbcd21505	-0.025644789
67	0xbd786612	-0.060644217
68	0xbd5a8bd5	-0.05335601
69	0x3e2ef632	0.17086104
70	0x3e4d55b7	0.20052229
71	0xbd5efc5b	-0.054439884
72	0x3daa5d6d	0.08318601
73	0x3deb8497	0.11499899
74	0xbc93d125	-0.018044064
75	0x3e19eb8b	0.15031259
76	0x3d6393bc	0.055560812
77	0x3d6fc7af	0.058540042
78	0xbe01914f	-0.12653087
79	0xba851392	-0.0010152927
80	0x3d54ef8a	0.051986255
81	0xbe30017b	-0.17188065
82	0xbe4b9d25	-0.19884165
83	0x3e555633	0.20833664
84	0xbcbac275	-0.022797802
85	0x3cc886b9	0.024478303
86	0xbdd15825	-0.1022189
87	0xbe1d92c8	-0.15388024
88	0x3d4bc142	0.049744852
89	0xbd1b3bf2	-0.037898965
90	0x3d69bfac	0.05706756
91	0xbd9d825d	-0.076908804
92	0x3dc19e77	0.09454053
93	0x3cd3dd39	0.025862323
94	0xbd6a0b71	-0.057139818
95	0x3e01e504	0.12685019
96	0x3dd36c14	0.10323349
97	0xbe47ee45	-0.19524486
98	0xbde432a8	-0.111424744
99	0xbdde3280	-0.10849476
100	0xbd6ebe4b	-0.058286946
101	0xbdae28d4	-0.08503881
102	0xbd62b0b1	-0.055344287
103	0xbe0fae31	-0.14031292
104	0x3dcdf82d	0.100571014
105	0x3dc5f55c	0.09665939
106	0x3e33cd0a	0.17558685
107	0xbd1dcb65	-0.03852405
108	0x3d4c2008	0.049835235
109	0xbe45e552	-0.1932576
110	0xbb5f78a8	-0.0034099016
111	0x3e407b76	0.18797097
112	0x3d5de2db	0.054171424
113	0x3e5a6575	0.21327765
114	0xbd6f5f11	-0.05844027
115	0x3d490c52	0.049084015
116	0xbdde7461	-0.10862041
117	0xbdc72e8f	-0.09725677
118	0x3de3af0d	0.11117373
119	0xbd9858df	-0.07438826
120	0x3db51f25	0.08843831
121	0x3cada0c6	0.021194827
122	0x3cd25470	0.025675029
123	0x3b79b5a0	0.0038102642
124	0xbd8128f0	-0.06306636
125	0xbd0a9878	-0.03383681
126	0x3da58c2d	0.08083377
127	0x3d8f0a0f	0.069843404
128	0xbc5fde37	-0.01366382
129	0x3e179cc2	0.14805892
130	0x3d87912e	0.06619488
131	0x3c872ea1	0.016501727
132	0xbd8ad41f	-0.0677874
133	0x3db0be21	0.08630014
134	0xbc84493e	-0.016148206
135	0x3dc62d59	0.09676618
136	0xbd9def54	-0.07711664
137	0x3e30f954	0.17282611
138	0x3db7141c	0.089393824
139	0x3d2169a4	0.039407387
140	0x3d414235	0.04718228
141	0xbc5af434	-0.013363887
142	0x3d81e1ba	0.06341882
143	0xbd8a5e6f	-0.06756293
144	0xbd843342	-0.06455089
145	0xbde2a00f	-0.11065685
146	0xbd8e41ab	-0.06946119
147	0x3d1a7a4d	0.03771429
148	0xbbd83209	-0.0065977615
149	0xbd765c90	-0.06014687
150	0x3debd9e9	0.115161724
151	0x3dd0a0cb	0.10186919
152	0x3d0f155d	0.034932483
153	0xbd489fd0	-0.048980534
154	0x3d936d13	0.07198539
155	0xbd10649a	-0.03525219
156	0xbd9e6a9d	-0.077351786
157	0x3c405e6e	0.011741264
158	0x3d82f7f9	0.06394953
159	0xbd8c6c1b	-0.06856557

exp_avg f4 [1, 40]
0	0x386eab8c	5.6903387e-05
1	0xb948b489	-0.00019140741
2	0xb92d64ea	-0.00016536159
3	0x3a0d1dcc	0.0005383163
4	0xb9ae0246	-0.0003318956
5	0x399763d9	0.00028875357
6	0xb994fd2c	-0.00028417388
7	0xb98e0508	-0.000270881
8	0xb8f96e58	-0.000118937984
9	0x39a245bf	0.00030951013
10	0xb9daaad2	-0.0004170747
11	0xb993c38e	-0.00028183724
12	0x393a5c3e	0.00017772705
13	0x3942ea54	0.00018588576
14	0xb735d4f0	-1.0838019e-05
15	0xb848bedc	-4.7861467e-05
16	0x3820805c	3.8266517e-05
17	0xb98145f0	-0.00024656905
18	0x381ba868	3.711172e-05
19	0xb9abfefc	-0.0003280564
20	0x3991e39b	0.00027826134
21	0x38f19c8c	0.00011520935
22	0x37a3fc50	1.9548606e-05
23	0x38236a2d	3.8961112e-05
24	0xb85cbd30	-5.2628282e-05
25	0xb9a4d0e4	-0.00031436153
26	0x39e71ea4	0.00044082582
27	0xb92f22b8	-0.00016702234
28	0x3950ff04	0.00019931427
29	0xb96526cc	-0.00021853595
30	0x399b8889	0.0002966563
31	0x39e429f1	0.00043518798
32	0x39101b96	0.00013743187
33	0x395f6d40	0.00021307636
34	0xb9094dc1	-0.00013094304
35	0x399fc573	0.00030473954
36	0xb9feae9e	-0.00048576755
37	0x39824f4a	0.00024854607
38	0xba433630	-0.0007446734
39	0x38968607	7.177522e-05

exp_avg_sq f4 [1, 40]
0	0x35351dc2	6.747106e-07
1	0x361a8156	2.3023072e-06
2	0x365bf537	3.2776277e-06
3	0x3797b2a8	1.8083796e-05
4	0x37835b01	1.5658794e-05
5	0x36fd9178	7.5569224e-06
6	0x365c5d13	3.283673e-06
7	0x37a56175	1.9714915e-05
8	0x37170985	9.002518e-06
9	0x372867e7	1.0037772e-05
10	0x37b138f4	2.1126565e-05
11	0x3680dbff	3.840308e-06
12	0x36dfa40a	6.6650146e-06
13	0x353d6f5c	7.0570036e-07
14	0x34aca276	3.2155702e-07
15	0x3539936a	6.9132386e-07
16	0x34526d4e	1.9597539e-07
17	0x379d29ee	1.8735383e-05
18	0x34b4c57b	3.36713e-07
19	0x367c13c7	3.7562438e-06
20	0x37214e63	9.614599e-06
21	0x337725fb	5.7543712e-08
22	0x36a2cb75	4.8516617e-06
23	0x34056441	1.2423062e-07
24	0x372343e6	9.731366e-06
25	0x33e483f1	1.0641077e-07
26	0x374ae2cc	1.20929435e-05
27	0x36358144	2.7046344e-06
28	0x36ecc22e	7.0559536e-06
29	0x37888b98	1.6277467e-05
30	0x377f8894	1.5230984e-05
31	0x371a3d7f	9.1934335e-06
32	0x3487055b	2.5149606e-07
33	0x3778aa05	1.4821538e-05
34	0x33e54647	1.0676427e-07
35	0x3790151d	1.717597e-05
36	0x370f1e6b	8.530546e-06
37	0x36cdc59c	6.132481e-06
38	0x37075c7c	8.06816e-06
39	0x3444f8e0	1.8344463e-07
